NextWordPredictLSTM/model.pth (torch, 808558 bytes, 7 tensors)

embedding.weight f4 [825, 128]
00000000: eb5b 1bc0 3354 86bf 6953 963f c0f2 84bf
00000010: b9d2 17c0 e92d 2dbf f745 c03f 1d69 e03d
00000020: a5e9 3abf 94f7 8fbf 8adb 933e c448 c4bf
00000030: b073 b63f 5e5b 7dbf dfb4 5f3e 3bd4 1bbf
00000040: 0a46 8cbf 9e69 053f 50a9 a6bd 62c7 c83e
00000050: 4bb8 ec3f 99d9 aa3f dc9e 43be f512 56bf
00000060: def1 fbbe 10ad 8f3f e79e 0840 1def 27be
00000070: 4f8b 853d 1bc1 3e3e d764 1bbf c02d a3bf
00000080: 1e75 7c3f af4a 6a3d cffc 7fbd 4af5 b1be
00000090: ee2c ae3e 490e 00c0 e4d3 063f c6c3 773f
000000a0: af2c 18bf 2a62 e23e a5fb dfbd 703c b43d
000000b0: 8f7e 83bf 2262 cf3f 6596 e23e 8f12 a0bf
000000c0: 6f75 bb3e b2dc 8c3e 1325 993b b43a 273f
000000d0: 69b8 d23e b468 72bf e7c7 0e40 5061 78bf
000000e0: 2c87 cebe 9377 e5be 734b 9d3e c92c 303e
000000f0: 938b 0ebf 7875 413f fa22 d23f febe c5bf
00000100: ec1b 1ebf 9c79 24c0 8016 83bf bfb5 efbb
00000110: a708 72bf bf0d a73e 27b0 adbf 6c5b 2a3e
00000120: 88ca d13f 1d60 b8bf 812b 6dbf da7d 36bf
00000130: 4cf8 4abf e445 13bc 695a 3cbe 05e7 fbbe
00000140: 3d68 d2bf d45e c6be 494e 0f3f 35d9 6ebf
00000150: 353d debf f2c6 06bf 0df2 0dbf 0706 8d3f
00000160: d760 c0bd b4d7 a53d cf70 8e3f 5125 183f
00000170: af17 1740 7cd3 36bf 3035 dfbe 2fd7 92bf
00000180: 648e f93e c5dd a9bf 475c d6bf 418c 963f
00000190: d4b1 313f 8ecb ddbd b587 62bf 7e73 ef3f
000001a0: 33d1 d13f 82a7 f9be 9b45 783f feef 3a3f
000001b0: bdf7 7c3e 3d8c f2be 1428 82be ad88 cabf
000001c0: 3b98 cf3f f7ee b6bf 4e58 8ebf 5256 2b3f
000001d0: 2c83 0ebf b4d0 d5be 5a95 a63f b165 b0bf
000001e0: c46f 80be d4f8 5d3f 5da9 8a3f 99f2 983f
000001f0: 92fe 733f 097d db3f 1e84 20bf 152b 3bbf
00000200: 11ed a93f 3668 6d3f 9cb2 093f af4a 273f
00000210: e512 643f b6e9 44bf d170 dd3e 3821 8abf
00000220: 9cce d7bf c6c8 61be a8f6 b93e d9c2 46bf
00000230: 9002 05be 236b fbbf e720 4b3f f0bd 1640
00000240: a486 a23f 04e6 a83e 6f74 003f 7b6e 803f
00000250: 3c13 b7bf 4035 22be 90c0 853f 160e 8b3f
00000260: b0fc 4cbe a8b0 ab3e 9a9e 99bf 7cd0 aa3f
00000270: bb08 60be 42c2 f03c 3efe d83e fbeb 9d3e
00000280: 427f 7c3f 5d41 a6bf ea68 f63f 675b c53f
00000290: 1503 82bf 40fa fbbe ea42 8fbf c96b babf
000002a0: f926 6abf 60ce da3f add5 793e 4821 ae3e
000002b0: 41bc 21be 1156 483e ed86 dc3f ad94 63be
000002c0: cba9 2dbf 09ba 8a3e e7ed e8be 6c5a 8dbf
000002d0: 1206 13c0 985c 1a40 0aa9 963f cdc1 0a40
000002e0: 90fd 0040 c2e1 1ebf 3937 d4be 0348 39bf
000002f0: 2226 e13d eed8 303f 8b98 b9be db14 013f
00000300: 833c 0fbf e216 813f 98d2 ce3f b454 00c0
00000310: 8038 ebbf f07d 65bf 74f9 99bf aa00 d33d
00000320: 9e48 79bf 2b1d 0bbf 9bc4 683f a057 86be
00000330: 1267 323f 8997 a9bf 92d3 ab3f 3868 f43e
00000340: 1d87 153f 9e7f 78bf 3267 973c 2e15 c6bf
00000350: b622 8fbf 3213 9e3f 075e 84bf d336 c3be
00000360: 60a6 bf3e cab6 85bf 4486 ab3f c24e 5fbf
00000370: 500c 923f 81d1 3a3f 98fe 863d a396 c9bf
00000380: 0e3f 06bf b269 9cbe e726 8e3f 69c1 a1be
00000390: ab0b 063e 7b00 b2bf 6987 e8be 3603 ce3f
000003a0: 8c88 da3f d3f6 f83f b3fd 243f 1b99 673f
000003b0: 6d2f 313e f71b 04bf 1ed0 1140 f124 06bf
000003c0: 89b5 ad3f bb41 bcbf 8768 2240 7aa6 2abf
000003d0: 0713 f53f 972c a2bf a4ff a1bd 6574 9b3f
000003e0: 8d3e cbbf 26a4 a33e 23ee 973f 89d4 37bf
000003f0: c7de 8dbf f2e6 cbbf f15d c53f f2bd 64bf
-2.4274852 -1.0494446 1.1744205 -1.0386581 -2.3722365 -0.6764818 1.5021352 0.10957549
-0.73012763 -1.124743 0.28878433 -1.5334706 1.4254055 -0.9896754 0.2184634 -0.60870713
-1.0958874 0.52114284 -0.081377625 0.39214617 1.8493742 1.3347656 -0.19103569 -0.83622676
-0.49207968 1.122469 2.1346986 -0.16399808 0.06520712 0.18628351 -0.60700744 -1.2748337
0.98616207 0.05720013 -0.062496956 -0.34757453 0.34018654 -2.000872 0.5266707 0.967831
-0.5944318 0.44215518 -0.10936669 0.0880059 -1.0272998 1.6201823 0.44255367 -1.2505664
0.36613032 0.27512127 0.004673609 0.6532395 0.4115632 -0.94691014 2.230951 -0.9702349
-0.40337503 -0.4481779 0.30721626 0.17204584 -0.55681723 0.7556987 1.6416924 -1.5448911
-0.61761355 -2.5699224 -1.0241241 -0.007315367 -0.9454445 0.32627675 -1.3569382 0.16636437
1.6389933 -1.4404331 -0.92644507 -0.71285784 -0.7928512 -0.008988831 -0.18393864 -0.4919969
-1.6438061 -0.38744223 0.5597883 -0.9330018 -1.7362429 -0.52647316 -0.55447465 1.1017464
-0.09393471 0.08097783 1.1128176 0.5943194 2.3608205 -0.7141645 -0.43595266 -1.1471919
0.48741448 -1.3270804 -1.6746911 1.1761552 0.6941197 -0.108298406 -0.8848832 1.870712
1.6391968 -0.4876061 0.9698121 0.7302245 0.2470388 -0.47372618 -0.25421202 -1.582296
1.6218332 -1.4291676 -1.1120698 0.6692859 -0.556689 -0.4176079 1.3014328 -1.3781034
-0.2508527 0.86707807 1.0832936 1.1949035 0.9531032 1.7147533 -0.62701595 -0.7311261
1.3275472 0.9273714 0.5378816 0.65348333 0.8909133 -0.76919115 0.43250135 -1.0791388
-1.6859927 -0.22049245 0.36320996 -0.77641064 -0.12989259 -1.964207 0.7934708 2.3553429
1.2697339 0.32987988 0.50177664 1.0033716 -1.4302745 -0.15840626 1.044939 1.0863674
-0.20018268 0.33533216 -1.2001526 1.3344874 -0.2187833 0.029389504 0.4238147 0.308441
0.9863168 -1.2988697 1.9250767 1.5418519 -1.015719 -0.49214363 -1.1192296 -1.4564143
-0.9146572 1.7094231 0.24397917 0.34009767 -0.1579447 0.19564082 1.7228676 -0.22224684
-0.6783721 0.2709506 -0.45494005 -1.104322 -2.2972455 2.4119015 1.1770337 2.1680787
2.0154762 -0.6206323 -0.41448382 -0.72375506 0.109936014 0.6908101 -0.36249194 0.5042245
-0.5595171 1.0085108 1.6158018 -2.0051699 -1.8376617 -0.8964529 -1.2029252 0.10302861
-0.9737643 -0.5434138 0.90924996 -0.26238728 0.6968852 -1.324937 1.3423941 0.47735763
0.5840929 -0.9706973 0.018481825 -1.5475214 -1.1182468 1.2349608 -1.0341195 -0.38127765
0.37431622 -1.0446408 1.340035 -0.8722955 1.1410007 0.7297593 0.06591529 -1.5749096
-0.52439964 -0.3054939 1.1105622 -0.31592873 0.13090388 -1.3906397 -0.4541581 1.609473
1.7072921 1.9450325 0.64449614 0.90467995 0.17303248 -0.5160517 2.2783275 -0.5240012
1.3571025 -1.4707559 2.5376298 -0.66660273 1.9146432 -1.2669858 -0.07910088 1.2144896
-1.5878464 0.31961173 1.1869549 -0.7180868 -1.1083611 -1.5929854 1.5419294 -0.89352334

lstm.weight_ih_l0 f4 [240, 128]
00000000: 9528 0b3e aae6 243e 831b 60be 31b6 bfbd
00000010: 1307 bb3c 5641 1bbd 3a16 9b3d 66d9 c83e
00000020: c8cb 9c3d 49c4 c43d de1f 553e 4362 113c
00000030: 9ae8 8b3d aac6 2e3d 2beb a03d ae8b ee3e
00000040: efb4 c63e 17bc bf3c 4012 9e3d 077f 15be
00000050: ca17 5bbd d038 adbe 3ab0 8a3e f22f f23d
00000060: 231f 95be 9dfe 54bd 8a85 afbd 56b6 71bd
00000070: 0c33 e33d 2f22 5dbe ea84 edbd 3460 55be
00000080: b572 a0bb 0de9 0dbe f0e5 d53c bcbd 7dbe
00000090: b9e2 663e 2299 243e d6d2 8a3d b1c1 84be
000000a0: d720 9abd 9146 833d 4a89 1d3a 9671 dcbe
000000b0: ca43 63bc dfab 2bbe 58d5 4fbe 89fd 23be
000000c0: 4703 29be dea2 1a3e d140 f33d 3672 fbbc
000000d0: 6555 933e 654a c53e b4f2 a83c 8af4 2bbd
000000e0: ed62 0bbe f019 35be 3827 2dbe 6fa3 353e
000000f0: 87a3 1abe 8d79 8c3e 2f49 83bc 8dad d53d
00000100: 20ef 17bd 87f2 8cbd 6110 5ebe 6bc9 933e
00000110: d3d3 ab3e 413d 07be 25da 6bbe 217a ebbd
00000120: bc56 83bd 2963 16be 697c 0ebe ca32 9bbd
00000130: 8c2a e43d a1c4 f33d e645 aa3e 3a5a 253e
00000140: 99ac fabb e6f5 4a3e 2c95 a83e 936a 5ebe
00000150: ba94 e8bc 2ff1 ee3d 1dcc d8bc d523 52bc
00000160: b4ee 793d 6cdf 70bd ed25 493e 2f99 51bd
00000170: bea0 5b3d 62e7 95bd 503d 3c3c 9f5e 7bbe
00000180: ae50 d93d 6226 41be 520f 50be 0e90 9cbc
00000190: caf1 123e 1d10 8ebe c675 6dbe f159 15be
000001a0: 7c51 0e3e f08f 3c3e 0730 c1bd 66cf 723b
000001b0: 528a c5bd 41fc adbd d956 0f3d ce1f 87be
000001c0: 0512 fa3d 0924 afbd e57e f53d 410f 07be
000001d0: 4b90 f33e 8558 84be fa8a 1abe 172b a43d
000001e0: 5b91 60be 7858 d2be 1f03 163e 6b7f 273d
000001f0: 7f69 f8bd 19af a6bd d3d5 ddbe 9a67 63be
00000200: 16e0 963e de1f b1bd 56ef 41be 9573 873e
00000210: d176 99bd 63c4 a6bc 7a5b 973d 34eb adbd
00000220: 2de9 87be 25f7 b73e 1fd7 75be 2a1e 6bbe
00000230: 78a8 34be 0c90 a3be b609 433e 8e73 8abd
00000240: 6f3c c1be 2237 693d 4ba0 a13c 63a4 fc3c
00000250: a6a1 8ebe b141 813c e012 45be 273e a4bb
00000260: 4d38 eebd 3351 9c3d 61cb 7cbc 438a 043e
00000270: e114 033f de2a 623e a20e f6bc 3a63 82bb
00000280: 06d6 803e aeab c7bb dabc a1bd 1b67 8ebc
00000290: eaa0 653d ddb8 d3bd 33dd 97bc ed08 dd3d
000002a0: 6ee4 b53d 4790 2c3e 238c 633e f034 05be
000002b0: f567 9bbe e9ba c93d 63af 24be 13b7 393e
000002c0: d5a3 8f3e e995 333d 3dd9 5ebe df30 133e
000002d0: 320d 3cbe 10f4 573e 80e9 2cbe 879e 8f3e
000002e0: aa97 a73c 9d15 163e 1aad f6bb ea7e 043e
000002f0: 8293 b0bd 2c61 c4bc 9e5f d4bd 5033 9d3d
00000300: a819 ce3d c4cb dcbd 2ed9 66bd 4c24 c23d
00000310: 6d86 c2bd 8b0b 023e 54e3 67be 0624 febc
00000320: edec 88bd c565 62be 0b50 1fbd 46e3 a53d
00000330: b0cd 83bc 1e95 a53d 9012 61be 8188 683e
00000340: 1247 06bd 0a5d 993c 206c c2bd 0a01 f4bd
00000350: 25d3 98bc 1a5a 423c f82f 4b3d e418 3fbe
00000360: cab4 a9bd ced2 183e ebe0 bbbe 5d88 34be
00000370: 784b 563e 18eb 64be 45ed 0d3d 5e32 2cbe
00000380: 6695 213e d2df 8a3e c3c2 953e e0ec c13d
00000390: d571 bf3d 0e69 b93d 4ba8 033f 2046 35be
000003a0: 6fac 723e f76e dd3e 2b8b 4c3c 0104 fdb9
000003b0: 5166 d3bb f103 9b3d 1a39 b73d 5177 9b3e
000003c0: 1f04 38bd 1cb6 1d3b 7444 76be 4e2a 5bbc
000003d0: 64b6 0cbe cdb4 9a3e 9ffb ccbe 0c20 2fbd
000003e0: d9c5 69bd 02ce ccbd 16e2 6cbe 6132 a13b
000003f0: d602 75be 7ff7 5bbd 137c 873d 6a6d 19bd
0.135897 0.16103616 -0.21885495 -0.09360922 0.022830522 -0.037904106 0.07572599 0.39228362
0.07656056 0.09607751 0.20812938 0.008873525 0.068314746 0.04266993 0.07857355 0.46590942
0.38809916 0.023405118 0.07718325 -0.14599238 -0.053489484 -0.33832407 0.27087575 0.11825551
-0.29125318 -0.05200063 -0.085703924 -0.05901178 0.11093721 -0.21595071 -0.11597617 -0.2083748
-0.0048964866 -0.13858433 0.02611062 -0.24779409 0.22547425 0.1607404 0.06778495 -0.25929025
-0.07525795 0.06409944 0.00060095324 -0.4305541 -0.013871143 -0.16764782 -0.20296228 -0.16014685
-0.16505156 0.15101191 0.11877597 -0.030694108 0.28776088 0.3853332 0.020623542 -0.041981257
-0.13611956 -0.17685676 -0.16909492 0.17738126 -0.15101443 0.27436486 -0.016026108 0.10433493
-0.03709328 -0.06882196 -0.21685936 0.28864607 0.33560047 -0.1320696 -0.23032434 -0.114979036
-0.06413028 -0.14686264 -0.13914646 -0.075780466 0.11140928 0.11902738 0.33256453 0.161477
-0.00764997 0.19820365 0.3292631 -0.21720342 -0.02839123 0.11667096 -0.026464516 -0.012825926
0.06101866 -0.05880682 0.19643374 -0.051171478 0.053620093 -0.073195234 0.011489227 -0.24547814
0.106110916 -0.18862298 -0.20318344 -0.01911166 0.14350048 -0.27746668 -0.23189458 -0.14585091
0.13898271 0.18414283 -0.094329886 0.0037049889 -0.09645523 -0.08495379 0.034994934 -0.26391453
0.12210468 -0.08551795 0.11987094 -0.13189413 0.47571024 -0.25848785 -0.15092078 0.08016031
-0.21930449 -0.4108312 0.14649628 0.040893 -0.12129497 -0.08138866 -0.43327197 -0.2220749
0.2946784 -0.08648656 -0.18938956 0.2645537 -0.074933656 -0.020357316 0.07390495 -0.08492127
-0.26545087 0.35930744 -0.24007843 -0.22960725 -0.1764239 -0.31945837 0.19046673 -0.067603216
-0.3774142 0.056937344 0.019729754 0.030840104 -0.27857703 0.015778394 -0.19245481 -0.005012292
-0.11631832 0.07632675 -0.015429349 0.12943368 0.51203734 0.22086665 -0.030036274 -0.003979114
0.25163287 -0.006093464 -0.07897349 -0.017383149 0.056061663 -0.10337994 -0.018538093 0.10792718
0.0888146 0.16851912 0.22221427 -0.13008475 -0.3035275 0.098501034 -0.1608253 0.18136244
0.2805468 0.043844137 -0.21762557 0.14374112 -0.18364409 0.21089196 -0.16885948 0.28050634
0.020458061 0.14656682 -0.0075279595 0.12939039 -0.08621885 -0.023972116 -0.103698 0.07675803
0.10063487 -0.10781053 -0.056359462 0.09479579 -0.09498296 0.12699716 -0.22645313 -0.031023037
-0.06685815 -0.22109134 -0.038894694 0.080999896 -0.01608929 0.080850825 -0.21979737 0.22708322
-0.03278262 0.018721122 -0.094932795 -0.11914261 -0.018655369 0.011862302 0.049606293 -0.18661839
-0.08286436 0.14924166 -0.36695036 -0.17630143 0.20927227 -0.22355306 0.034650106 -0.16816089
0.15779647 0.27123886 0.29250154 0.094690084 0.093478836 0.09053241 0.5142867 -0.17702532
0.2369859 0.43248722 0.012484352 -0.00048258904 -0.006451406 0.07569111 0.08946438 0.3036447
-0.044925805 0.0024064844 -0.2404955 -0.013376785 -0.13741452 0.30216065 -0.40035722 -0.04275517
-0.057073448 -0.1000023 -0.2313312 0.0049193357 -0.23926863 -0.053702828 0.06615462 -0.03745786

lstm.weight_hh_l0 f4 [240, 60]
00000000: bce7 e9bd 57ee 8ebd 3771 323e 3aec 16bd
00000010: 04c4 7b3e 59d4 a83e d98b 5b3e 708e 0cbf
00000020: c209 5b3e 10cf 8c3d 9406 8c3e 0343 ab3e
00000030: 94ab 263e f654 243e 9bdc cd3d 1e3f 54be
00000040: d3dd a2be 08ff 1cbd d1cd 16bf dae9 543e
00000050: 599c f6bd c2f7 9dbe 1434 8ebe 3763 3dbe
00000060: 0917 1abf 0b4b 163e e714 3abe 3419 1dbe
00000070: 75bd c8bd 07c0 c23c 03b5 eebc c63e 8c3d
00000080: 8d8e edbd 7d50 d13e 70c0 073d 5776 10be
00000090: 7834 2fbf 7be4 99be 3c2c 643e 2add 993e
000000a0: 1bbf 223e cc1b 0a3c 555d ae3e 6405 1a3d
000000b0: 6fff 45bd 9fc0 893e 852c 773e 87e0 7bbd
000000c0: cd0e 883e f3ff 30bc 5684 b13e c6e1 c2be
000000d0: bb84 123f 6304 0c3e b005 963b e51d 72bc
000000e0: fa00 293d ea82 5abe bf4a e3be 9902 9a3d
000000f0: e712 f73d fea7 c03e 92c0 bfbd 64d8 5fbe
00000100: 185f 843e bb98 6b3e 9b9a ef3e ecfa febe
00000110: 538f 36be b520 16be f65e c3bc bf3b 2c3e
00000120: e35c ba3e 35e7 f83d 849d 563e ebfc ba3d
00000130: 5908 16bc 2b10 d9be 7519 fabe d41b 543d
00000140: 9e93 90bd 8d04 21be c2f1 7ebe a910 1fbe
00000150: ab90 32be 1643 5a3e 22ff 18bf 3334 52bd
00000160: 1a88 65be f9ad ac3c 6275 1ebe d6be 29bd
00000170: f53e c7be 4aab cabc d6c6 be3e 7d95 f13d
00000180: 4ebf 03bf 858a c3be dfbf de3d 7eb8 b13d
00000190: 5600 033d 1c52 38be 3e2f 20be 67c0 fcbd
000001a0: 2aa8 e13e bf33 bdbd b072 753d 6fd5 5a3e
000001b0: 544b 1c3e d5c4 f23d 4327 1ebe dcca 55be
000001c0: 4e14 543e eeac 053e 6067 1fbe 73c8 293e
000001d0: 1ce8 acbe 05a8 8dbe 77ef d1be 4d27 aabe
000001e0: 23af c9bc cf89 023e e65c c6bd 11e3 8c3d
000001f0: 2e20 b63e f35f 903d 7fbb 0a3f ad61 c6be
00000200: ee8d 26be 3111 0ebe e478 423e 7a71 c03e
00000210: ee7c 2c3d 0727 9dbe 8e50 513e 42ec 4cbe
00000220: 80eb 07be 3bf6 e4bd 47cd e4be 2820 a6be
00000230: 7ad2 29be f235 9c3d e691 88be 395a 2b3d
00000240: 6f8b f23d d851 613c bed9 00bf 5bbf f63d
00000250: 1125 e5be cd06 6abd 34ef bbbe 18c2 21bd
00000260: 0b10 d0bc 60e5 d13d 4317 c53e 87e2 1b3e
00000270: 7bed 0ebf c56d 9bbe 976e dbbd c203 a6bd
00000280: f0af 6f3e 8fa6 583e 528d b83d 4033 47be
00000290: b295 95bc 6a54 b0bd 4d31 a4bd a3f7 6b3e
000002a0: 202d f33d dd7b bd3d 7bb1 113f adc5 8fbd
000002b0: 3ee9 f03d b218 93bd f51f 9cbe 928e 7fbe
000002c0: 3d88 f7be 1572 223e 5950 01be 9bb6 7dbe
000002d0: d9fd 763d dd7f a6bc a232 333e 6f8d 8bbe
000002e0: 0a31 203d e87d 273e 72b7 bd3d abdc 2ebf
000002f0: fb1f b53e 46df 063e 6ba5 883d 214c 9b3e
00000300: ce5c 903e 39e7 6e3e 3b4e 8f3c f760 acbe
00000310: 3d96 28be 39c2 4ebe 4ff8 ebbe 5d6e ee3d
00000320: 6d0c 92bd 9f29 5dbe a790 403e 465a 61be
00000330: 6cf1 5a3d 4bee dd3e cedf 68be 433f 92be
00000340: 49b4 01bf 9aca 8dbd a176 893d 3dad 983d
00000350: 3962 08be 805a 0f3e f706 27bd e440 c1bd
00000360: 6dca 12bf 8c8d 83be c3db 143e df20 49be
00000370: 667c 1d3e da1c d03e 0353 993e e040 b3bd
00000380: f5be 223e 404b 98be 663e 0bbd 3c67 263e
00000390: 81ea 843e 9299 a7be 07ec 2d3e 6053 abbe
000003a0: 1acf fe3e 0638 163e f9fa 0bbd b402 6c3e
000003b0: 584e 52be dc42 f7bd e7dc b5be fadf 98bb
000003c0: c84a 283c 488e 443e 94b0 47be b37d acbe
000003d0: a462 f13e bfc8 163d 91f9 e93e 3c06 77be
000003e0: 3fc5 8f3e 10d2 fbbd 77f3 e13d 81dd d93e
000003f0: 2ea0 6d3e 3967 76be 8311 bebe 6c70 4fbe
-0.11421153 -0.069790535 0.17426 -0.036846377 0.24586493 0.32974508 0.21440066 -0.5490484
0.21390441 0.068754315 0.2734877 0.33449563 0.1627639 0.16048035 0.10051843 -0.20727202
-0.31809863 -0.038329154 -0.589078 0.20792332 -0.1204154 -0.30853087 -0.27774107 -0.18494879
-0.601914 0.14677064 -0.18172036 -0.15341645 -0.09801761 0.023773206 -0.029139047 0.068479106
-0.11599455 0.4088172 0.033142507 -0.14107643 -0.68439436 -0.3005713 0.22282499 0.30051547
0.15893213 0.008429479 0.34055582 0.037602797 -0.048339304 0.2690477 0.24138077 -0.061493423
0.26573792 -0.010803211 0.34671277 -0.38062876 0.5723378 0.13673548 0.0045783147 -0.014777635
0.041260697 -0.21339002 -0.44392964 0.07520027 0.12064152 0.37628168 -0.09362902 -0.2185989
0.258538 0.23007481 0.46797642 -0.49800813 -0.17828111 -0.14660914 -0.023848992 0.16819666
0.36398992 0.12153474 0.20958525 0.091302715 -0.009157264 -0.42395148 -0.48847547 0.05178435
-0.07059406 -0.15724392 -0.24896911 -0.15533699 -0.17437999 0.21314654 -0.597643 -0.051319312
-0.224152 0.02107905 -0.15474465 -0.04144176 -0.3891522 -0.02473988 0.37261075 0.11796091
-0.5146378 -0.3819162 0.1087644 0.08677767 0.031982742 -0.18000072 -0.15643021 -0.12341385
0.44073611 -0.092383854 0.059923828 0.21370481 0.1526311 0.11853949 -0.15444665 -0.20878166
0.2071087 0.13054249 -0.15566778 0.16580372 -0.33770835 -0.2766725 -0.4100301 -0.3323311
-0.024619645 0.12747882 -0.09685688 0.06879247 0.35571426 0.07049551 0.54192346 -0.38746396
-0.1626508 -0.13873746 0.18991429 0.37586576 0.04211133 -0.30693838 0.20440885 -0.20012
-0.1327343 -0.11179777 -0.44687864 -0.32446408 -0.16584197 0.07627477 -0.26673812 0.04183409
0.11843001 0.013752423 -0.5033225 0.12048217 -0.44754842 -0.057135392 -0.36705935 -0.039491743
-0.025398275 0.10248828 0.3849431 0.15223132 -0.55831116 -0.30357185 -0.10714453 -0.081061855
0.23406959 0.21157287 0.0901133 -0.19453144 -0.018259857 -0.08609851 -0.08017216 0.23043685
0.11873841 0.09252141 0.5691144 -0.070201255 0.117632374 -0.07182445 -0.3049313 -0.2495673
-0.4834613 0.15863831 -0.12628306 -0.2477669 0.06030068 -0.020324642 0.17499784 -0.27256343
0.039109267 0.16356623 0.09263505 -0.6830546 0.35375962 0.1317111 0.06672176 0.3033152
0.28195804 0.23330392 0.017493358 -0.33667728 -0.16463561 -0.20191278 -0.46087882 0.11642144
-0.07131276 -0.21597908 0.1880518 -0.22007093 0.053452894 0.43345866 -0.22741625 -0.2856389
-0.5066572 -0.06923409 0.0671208 0.074549176 -0.13318719 0.13999367 -0.040778127 -0.09436205
-0.5734013 -0.2569393 0.14536957 -0.19641446 0.15379485 0.40647012 0.29946145 -0.08752608
0.15893157 -0.2974491 -0.033995055 0.16250318 0.25960162 -0.32734352 0.16984569 -0.33462048
0.4976738 0.14669809 -0.034174893 0.23047906 -0.20537698 -0.12073299 -0.35520098 -0.004665372
0.0102717355 0.19194901 -0.19500953 -0.3368965 0.4714557 0.03681254 0.45698217 -0.24123472
0.28080174 -0.122959256 0.11032765 0.42551807 0.23205635 -0.24062814 -0.37122735 -0.2025773

lstm.bias_ih_l0 f4 [240]
00000000: 376b 453f 8dbd 583f 3721 293f 7d96 273f
00000010: cc6e a43e 4b6f 5d3f 6fa4 0c3f be74 493f
00000020: 760f 273f 830b 493f 1e7a 143f 1333 d53e
00000030: 4100 273f caf8 243f be1f a73e 522b 233f
00000040: b1ae 203f e3d0 1d3f 150c 063f fb8b 293f
00000050: 047d 2a3f 978e 433f 9983 4c3f 43a8 1f3f
00000060: 726b cd3e 74ff 553f 1837 0a3f e6d4 423f
00000070: e6eb 1e3f 76ab e73e 3e2f 153f 82d2 4e3f
00000080: 7766 413f 319e 593f 06aa 463f 4b5a 233f
00000090: b9b4 073f 8f1a 3e3f f308 db3e d028 443f
000000a0: efaa da3e 297b 043f e1bd 203f 0c2a 0b3f
000000b0: fcf4 153f 47b0 333f e03e 223f 11ba 183f
000000c0: 9d92 e63e 5727 2e3f 3f6c 5f3f 9e90 383f
000000d0: 432b 1c3f f8f1 223f 0e80 273f cd2e 4e3f
000000e0: 91b1 0f3f 0ec4 133f 4e7a d33e b7d4 003f
000000f0: 5d00 8c3d c73a dbbc aa18 1e3e 716c 413e
00000100: 22f2 2a3e 3cf4 823e 06b7 ba3e 75b3 b43d
00000110: b786 083f b431 d13c 7096 be3d 033f 573e
00000120: ad55 653d d5a2 a13e be3c 813e 0196 453e
00000130: e9a4 0e3e 42bf 463e 57a7 113e 8c37 683e
00000140: 3e8f d43d 9a3e ac3d 3bdc 213e 1f5a b03e
00000150: a8df 873e c269 853e e4b8 293e a444 22be
00000160: b2c1 4f3e 7141 3b3d 8668 b03d f60c 68bd
00000170: f80b 873e e1f0 ab3d 072c 6f3e 62e6 fa3d
00000180: 6bcf b53e eaac 56bb a8e1 d53d 132b e63d
00000190: 7d73 493e 46e6 713e 773a ff3d 2458 b03e
000001a0: 6a68 c13d d710 6d3e 50ae b13d 7046 d43d
000001b0: 3658 af3e e612 823e 6136 053e 16ca 123e
000001c0: 2874 8a3e bf8c be3e b99b 403e aa89 d93d
000001d0: 5bda 7e3e 6cf0 dbbd 997c a23e 7cfb 093e
000001e0: 49cc 963d d8fd 523e df7a 0e3e 54f1 4abe
000001f0: 53af cbbd a3f4 313e ac41 003f c236 e7be
00000200: 4ee2 0f3d e5f4 46be 0449 6bbe 60a3 8a3e
00000210: 92d1 873d 22d8 0abe 208f 8e3e 40e3 00be
00000220: 3683 b0be d834 f13d 689b e1be 31dc b13d
00000230: ea13 21bd 50cc c5bd 7748 3dbe e5e5 90be
00000240: f36b 63be 12d9 323e 4ea6 04bf ec10 d93c
00000250: 9ec0 0abe 1273 0fbe 7695 8e3c d618 eebd
00000260: bb22 88be 9fe2 f93d d16e 553d c953 983d
00000270: 3da3 7abe 22e7 a5be 4a95 183e c91a 6b3d
00000280: 3e90 643d c382 49be 5b1e ddbd 1270 53be
00000290: 1161 073e 1777 d5bc b745 883e bf16 b43e
000002a0: f28b db3d aba2 0abe e8e6 a13d 4772 56be
000002b0: de30 69bb 5cc3 a13e 01d5 b6bd 375c 283d
000002c0: 0c6d aabe 0e7c 3f3b 771a 8bbe f2d9 96be
000002d0: ce71 1a3f 9375 543f 9541 763f a571 2c3f
000002e0: 944c 343f 1d3f 913f b933 5c3f 9a66 433f
000002f0: 7da3 673f 92c4 5f3f 0831 1f3f 3d51 473f
00000300: c4c0 1c3f fb09 163f 37e2 2a3f e202 5b3f
00000310: f325 7f3f 9593 723f de7a ed3e 8fb8 583f
00000320: d3f3 5d3f eec0 813f 5fd2 743f 3b67 273f
00000330: 23f8 6e3f ab82 753f 965e 343f 9726 543f
00000340: a319 843f ac3e 313f 3701 4e3f 4b16 7c3f
00000350: 38ef 6c3f 5abf 833f c0a9 563f 1be4 583f
00000360: a246 543f 419f 413f 84c9 383f 9cf0 6c3f
00000370: 2af1 303f 5e98 643f a122 3b3f cc6a 683f
00000380: 11a0 8a3f 5bdf 693f 77be 333f 4416 6d3f
00000390: 029f 103f db96 6d3f 91bb 5b3f 56ee 343f
000003a0: a54d 5c3f 53c1 1f3f 5c3a 693f 9f9f 613f
000003b0: 111b 6d3f 13ce 543f f1d2 113f ab2e 303f
0.7711672 0.8466423 0.66066307 0.65464 0.3211578 0.86497945 0.54938406 0.7869376
0.65257967 0.7853319 0.57998836 0.4164053 0.6523476 0.6444212 0.32641405 0.63737977
0.6276656 0.6164686 0.52362186 0.6622922 0.6659701 0.7638945 0.798883 0.6236612
0.40121037 0.83592916 0.53990316 0.7610611 0.620787 0.45248002 0.5827521 0.8078996
0.75546974 0.85007006 0.77603185 0.6380965 0.53010136 0.74259275 0.42780265 0.76624775
0.42708537 0.5175043 0.6278973 0.54361033 0.5857694 0.7019085 0.6337719 0.59658915
0.45033732 0.6802878 0.87274545 0.7209567 0.6100351 0.63650465 0.6542977 0.8054016
0.5613032 0.5772103 0.4130425 0.5032458 0.06836007 -0.026761426 0.15439096 0.18889023
0.16693929 0.2557696 0.3646776 0.08823291 0.5333056 0.025536396 0.093060374 0.21020131
0.05598991 0.31569543 0.25241655 0.19295503 0.13930096 0.19408897 0.14223991 0.2267744
0.10378884 0.08410378 0.15806668 0.34443757 0.26537824 0.2605725 0.16574436 -0.15846497
0.20288733 0.045716707 0.08613686 -0.056652986 0.2637632 0.083955534 0.23356639 0.12250973
0.3550981 -0.0032756873 0.10443431 0.112386845 0.19672962 0.23622999 0.12462323 0.34442246
0.094437435 0.23150955 0.086758256 0.103649974 0.34246987 0.25405043 0.13009025 0.14334902
0.27041745 0.37216756 0.18809403 0.106219605 0.24887984 -0.10739216 0.31735685 0.1347484
0.07363183 0.20604646 0.13914059 -0.19818622 -0.0994555 0.17378478 0.5010021 -0.45158964
0.03512793 -0.19429357 -0.22977072 0.2707777 0.06631769 -0.1355901 0.2784357 -0.12586689
-0.34475106 0.11777657 -0.44063878 0.08684576 -0.039325632 -0.0965811 -0.18484674 -0.28300396
-0.22209148 0.17465618 -0.5181626 0.026497327 -0.1355004 -0.1400874 0.017405253 -0.11625831
-0.26588997 0.12201428 0.052107636 0.07437856 -0.24476333 -0.32402903 0.149007 0.05739859
0.055801623 -0.19678788 -0.107968055 -0.2064822 0.13220622 -0.026057763 0.26615688 0.35173604
0.10720052 -0.13538615 0.0790537 -0.20942031 -0.0035582106 0.3159436 -0.08927346 0.041103568
-0.3328632 0.002921823 -0.2716863 -0.29463154 0.603299 0.82991904 0.9619382 0.6736091
0.7042935 1.1347386 0.8601642 0.7632843 0.9048384 0.8740932 0.6218419 0.77858335
0.61231637 0.5860898 0.66751426 0.85551274 0.9966728 0.9475644 0.46382803 0.84656614
0.8670017 1.0137002 0.956335 0.6539189 0.93347377 0.9590251 0.70456827 0.82871383
1.0320324 0.69236255 0.80470604 0.98471516 0.9255252 1.0292771 0.8385277 0.8472306
0.8292028 0.7563363 0.7218249 0.9255464 0.6911799 0.89294994 0.73099715 0.9078796
1.0830098 0.9135644 0.702125 0.926121 0.56492627 0.9280831 0.8583308 0.7067617
0.86055976 0.62404364 0.91104674 0.8813419 0.92619425 0.83126944 0.56962496 0.6882121

lstm.bias_hh_l0 f4 [240]
00000000: a2aa 493f a849 293f 6bf2 183f 13d3 323f
00000010: ffc8 003f c919 503f 4c9c 183f 8289 483f
00000020: c076 373f fd3e 303f 42f0 053f 2e2c 0a3f
00000030: 5272 0d3f 5056 143f 5b28 e33e dcc0 1a3f
00000040: 5303 203f c73f 013f 4906 f83e 7634 273f
00000050: dc18 4c3f d880 1f3f 97e7 5a3f b60a 163f
00000060: 1645 d03e 70e3 6a3f 6e63 243f 57d3 3d3f
00000070: 054c 1f3f 18d0 ee3e c8f6 fc3e 0a57 273f
00000080: ebd3 333f cf98 353f f102 473f 9af0 3e3f
00000090: 859c 1a3f bace 243f 64dc 133f b1bf 133f
000000a0: fdf3 b93e 65fe f63e a128 093f c2e6 273f
000000b0: f66d 033f 476c 403f 00ce 3b3f f94d 2b3f
000000c0: ded6 e03e 0f76 ea3e 4482 3e3f 56f6 433f
000000d0: 38ed cb3e db24 313f c7a5 2d3f e76d 3a3f
000000e0: af33 0e3f 7014 283f 8df2 003f 31c1 3c3f
000000f0: 7a61 ff3d 26bc b03d 291c 443e 750e 9b3e
00000100: 27d8 a33d 954d 903e a4a6 553e 57fd 6c3e
00000110: c82b da3e 7172 273e adc1 7a3e 1905 833e
00000120: 52b3 2c3e 6965 8b3e 9178 c03d ee0f 523e
00000130: fa68 bd3d c4c9 5a3e 6088 e23d 5993 b83e
00000140: 5ad9 b13d 6a94 0c3e a1ae 893e 515c db3e
00000150: d4b2 e63e 988f 863e 169b 783e 4464 11be
00000160: b154 d63e 853c 42bd cb82 953c f907 0fbe
00000170: f927 ab3e 4196 43bd 4842 903d 805d bdbc
00000180: 35fe 2e3e edb4 053e 9914 94bc 20b4 0f3e
00000190: 2188 703e 3672 ba3e 33fe b53d bfa8 393e
000001a0: 6993 7c3e 9835 9a3e 4a43 ea3d ea90 3c3e
000001b0: be74 2c3e 3b23 cc3e cb39 4e3e 490a 1fbc
000001c0: e9c5 3f3e a8ad 8a3e 4643 403e 2193 1b3d
000001d0: 2b80 023e fee5 edbd 0deb f93e 4ed2 723e
000001e0: cb6e babd 6103 c93d 3e70 6c3c 0853 a1be
000001f0: cc49 29be 1748 a63d 74d6 bc3e 6bef b0be
00000200: aa6e 073e 764f 78be 2ab3 223c 4206 a93d
00000210: 8dd7 193e b70b 3ebc 0656 193e cfa5 f2bc
00000220: 0100 e6be 0a4f 35bd 85c5 adbe 63c4 d7bd
00000230: 46bf 013e 7f0a 7cbe 25d0 80bd d488 98be
00000240: 3625 aebd e33a a53e 5cff a8be 2e58 0abe
00000250: 9a0c 0dbe 927c 72be 6b9b c53d 37f7 7dbe
00000260: 91d8 70be 6c82 393e 27aa 2e3e 361e b23d
00000270: bd18 91be f61f f2be a23d 0f3e de57 5bbd
00000280: a065 563e 4e3c c8bd d608 37be a7d6 b7bd
00000290: 55e8 893e f9ea a93c 9165 6e3e 9638 9a3e
000002a0: 6e8f 403e 99c0 0dbe e293 873c b34c aabe
000002b0: e2a4 05bc 6a90 023f 2346 76be fd37 f5bd
000002c0: fbae debd 6e74 3d3d 3e86 ebbe 1d4c 88be
000002d0: cbba 373f 400c 6e3f 90bf 383f cea9 1b3f
000002e0: f00a 243f 5e32 913f 6783 273f 5888 4b3f
000002f0: 7335 4d3f 10d2 793f 2b1e 343f 74d8 783f
00000300: c2b1 263f 1f3b 173f e6a2 103f 34e5 633f
00000310: e026 613f 694c 833f 1cbe e23e 00f2 673f
00000320: ec66 663f d5b9 793f 8a54 7a3f 2010 223f
00000330: e9ed 453f e99e 7d3f f02e 203f 7620 623f
00000340: 7824 6f3f 2c81 3b3f fe48 3c3f 69f0 693f
00000350: ce38 623f adc9 783f 5a3f 493f 9eb3 693f
00000360: 8a19 333f 6d48 463f b890 333f c0c8 5a3f
00000370: 896f f13e 9273 4a3f cde6 283f 827c 473f
00000380: df0b 883f 54b3 723f 49ad 6b3f ceac 533f
00000390: 83e2 363f d30e 3a3f 9c83 3b3f ba37 273f
000003a0: 551c 223f 507d 203f b95f 883f 252a 633f
000003b0: df20 3b3f c390 223f eb22 1d3f 6a47 173f
0.7877599 0.66128016 0.597449 0.69853324 0.50306696 0.81289345 0.5961349 0.7833482
0.71665573 0.6884611 0.5231973 0.5397366 0.55252564 0.579442 0.44366726 0.6045053
0.6250507 0.5048794 0.48442295 0.65314424 0.7972543 0.62305975 0.8550963 0.58610094
0.40677708 0.9175329 0.6421422 0.74150604 0.6222537 0.46643138 0.4940703 0.65367186
0.70245236 0.7093629 0.77738863 0.7458588 0.6039508 0.6437794 0.57758164 0.5771437
0.3631896 0.48240963 0.5357762 0.65586483 0.5133966 0.7516522 0.73361206 0.6691585
0.4391393 0.45793197 0.7441752 0.76547754 0.3982942 0.6919686 0.6783108 0.7282395
0.5554761 0.65656185 0.50370103 0.73732287 0.12469764 0.086296365 0.19151367 0.30284467
0.08000212 0.2818419 0.2086435 0.23143516 0.42611527 0.1635225 0.24487944 0.25589827
0.1686528 0.27225807 0.09397996 0.20513889 0.09248538 0.2136603 0.11061168 0.36049917
0.08684035 0.1372849 0.26891044 0.4284387 0.4505831 0.26281428 0.2427791 -0.14198405
0.4186149 -0.047420997 0.018250844 -0.13967885 0.33428934 -0.047750715 0.07043892 -0.023115873
0.1708916 0.13057299 -0.018076228 0.14033556 0.23489429 0.3641526 0.08886375 0.18130778
0.24665608 0.30119014 0.114386156 0.18414655 0.16841409 0.3987063 0.20139234 -0.009707042
0.1872784 0.27085614 0.18775663 0.03798211 0.12744205 -0.11616133 0.48812142 0.23713037
-0.09103163 0.098150976 0.0144310575 -0.3150866 -0.16532058 0.08119219 0.36882365 -0.3455766
0.13225809 -0.24249062 0.009930411 0.08253147 0.15023632 -0.011599473 0.14974222 -0.02962008
-0.44921878 -0.04426483 -0.33939758 -0.10535505 0.12670621 -0.24613379 -0.062897004 -0.29791892
-0.08503191 0.3227149 -0.33007324 -0.135102 -0.13774338 -0.23680332 0.09648784 -0.24801336
-0.23520114 0.18116158 0.17057095 0.086971685 -0.28339186 -0.4729001 0.13988355 -0.053550594
0.20937204 -0.09777127 -0.17874464 -0.089764886 0.26935068 0.020741927 0.23280932 0.30121297
0.18804714 -0.13843001 0.016550008 -0.33261642 -0.008156987 0.5100161 -0.24050193 -0.119735695
-0.108732186 0.046253614 -0.46000856 -0.2662057 0.717694 0.9298744 0.721673 0.60805976
0.6407919 1.1343496 0.6543488 0.7950492 0.8015968 0.97586155 0.7035853 0.9720528
0.65114987 0.59074587 0.56498563 0.8902161 0.87949944 1.0257694 0.44285667 0.9060364
0.90000796 0.9754918 0.97785246 0.63305855 0.7731615 0.990706 0.6257162 0.8833078
0.9341502 0.73243976 0.7354888 0.9138246 0.8836793 0.9718273 0.7861229 0.912897
0.69960845 0.7745426 0.701427 0.8546257 0.47155407 0.79082596 0.65977174 0.7792436
1.0628623 0.94804883 0.9206129 0.82685554 0.7143938 0.7267887 0.73247695 0.65319407
0.6332448 0.6269121 1.0654212 0.8873618 0.7309703 0.6350214 0.61381406 0.59093344

fc.weight f4 [825, 60]
00000000: f65d 1cbe 2d16 df3e 04fc 09bf 4b6d 9ebe
00000010: dd14 d5be d087 e33e 0fda b03e ee7d 86be
00000020: 1f7a 26bd 2644 d8be dc41 83be d7f5 743e
00000030: 4fb2 ea3c 6dd8 39be 2d23 f13e 47ef 213e
00000040: 8fd9 e5be 3d7d 793e 443f ac3e 0e07 cb3e
00000050: c570 db3e eb9b 05be 8ac0 bd3d 82e6 e4bd
00000060: 0e1b a6be 7f49 1dbe 53ab cebe ce6d c9be
00000070: 3be2 663e c43e 34be ca05 e93e 548a 30bf
00000080: 57ed 84bd b3d4 25bd 97b0 0f3c 44a0 123c
00000090: 43f4 053e 154f 96bd 6b3d 9d3e 110f ce3e
000000a0: df6c cd3e d035 bbbe 7eba b9bd c35e c8bd
000000b0: 067c 4d3f 2737 923e bd0f 853e 9f34 503f
000000c0: d7bd 023f 6b80 1dbf 87bf bd3e 93c9 b53e
000000d0: 93a7 393d 0acf 7d3d f3b1 0bbf bd14 53bd
000000e0: 5a17 873e 9095 ce3d 8a3c 82be 2320 dabe
000000f0: 13ae 67be 3c14 c33e 8a0f cc3e 2fe5 d9be
00000100: d04e 343c b129 a03e 2624 2d3d 7b26 b9be
00000110: 38b2 8bbe 1a0c 99be 035d 983e 93e5 83be
00000120: 69bf 133d 6483 a5be 6bf5 dd3e e974 9d3c
00000130: 2c0f 053f 7d93 233e 6049 b6bc b835 1abe
00000140: 3bbe 5fbe a129 65be 627b d03d f6aa 0bbf
00000150: fea5 42be f38d c03e 7b00 e3be 364c e9bd
00000160: 078e 8dbd 08da 2f3d 61b9 02bf e21e 8a3c
00000170: 2837 953e 3572 bfbe b220 02bf bbec d13e
00000180: 7a1e 04bf f07e c8bd 5a45 ae3e b043 a0be
00000190: adf2 683e a9a4 54be 6ccf f0bd e706 23be
000001a0: a031 13be e3cb 94be 6bab b13e aa6f 64bd
000001b0: 70f1 d23e 2601 6ebe af48 ce3e 0477 3a3c
000001c0: ab06 913d 53fe e93e 1d13 96be 2770 99be
000001d0: 17b4 0fbf 26e0 bbbe 0c5b 0fbe 5f75 f7bd
000001e0: fdfd d3be 9eba 693e 34bd 283f 5f34 a4be
000001f0: fb78 93be 78e7 34bf 1172 1c3e 5442 0f3d
00000200: 8bf8 3b3e 436a d23e a1af 64bd 8305 9a3d
00000210: 3d5a fa3d c4d6 043e dbbe 9f3e 3309 3a3f
00000220: 1b25 86be 3511 37bd 00b0 a6bd 7d53 bc3c
00000230: 71f7 8b3b 3fa8 b93e 6e1b af3e 785c 263c
00000240: 5251 94be 7c58 d43e c653 04bf dbe6 7e3d
00000250: ccc7 00bf c055 53be ff64 2fbe 675f 18bf
00000260: 1687 323e 5440 613e d234 303f e2c1 03bf
00000270: 6e90 9fbe dd55 29be 4239 d0be 8944 e0be
00000280: 1dd3 70be e2e6 273c 7642 f1be 92e6 65be
00000290: 42ec a13d 1f45 af3d 26be d73d 6368 873e
000002a0: 6d02 a2bd dc5d 0cbf 0980 3d3e 5ad0 d63a
000002b0: f578 e8be 893f 113f 3d38 163e bec0 1a3f
000002c0: bf45 cdbe 0c8b 3b3e 25cd a9be 7f2d a4be
000002d0: d588 77bd 4846 08bf 4a60 863e 25b3 38be
000002e0: ccd9 a73e a4c9 1ebf 4ead a2bd 8db3 39bd
000002f0: c7b2 10bf fc19 9e3e 970b e1be a840 6e3e
00000300: 178e 133e ae99 05bf 2da3 54be 543a 123f
00000310: 88d3 ca3d f44c 473e a2ee 29be 7492 933c
00000320: 2811 eb3e e13d c13d 176f 8fbe 746b f93c
00000330: 34d1 03bf 85be b53e 8698 aebe 181a 4a3f
00000340: 69f9 b63e 3c52 20bf 0617 4cbe 8d05 c8be
00000350: 6cb5 9dbe 953e bdbd 887d da3e a05a e43c
00000360: bad2 2fbf 0efd febe 7b9e d53e ee85 48be
00000370: b171 bf3e 6b18 b8bd d3b8 dbbe edfb cb3d
00000380: 3519 583e 5b54 c0be 797f 2abd 3623 64be
00000390: 65a4 9a3e 68f2 403e ec80 0f3e 6ea5 ed3e
000003a0: 3f75 d9bd 700e 4b3c abd0 b4bd ba96 eb3e
000003b0: 65d6 b33c 9c71 ec3e 61a4 b6be b637 23be
000003c0: e34c 3bbe 7394 e53e 2a81 843d cb08 04be
000003d0: 622f a3be 8acc 593e 629b b93e df71 cbbd
000003e0: 9d97 04bd aa00 d9bd 9d62 053f a860 61bf
000003f0: 36cd cd3e 895c 953e 0d6a dc3d a38e 5f3e
-0.15270218 0.43571606 -0.5390017 -0.3094276 -0.4161748 0.44439554 0.34541366 -0.26267952
-0.040643808 -0.42239493 -0.25636184 0.23921905 0.028649477 -0.18148966 0.4709715 0.15813933
-0.44892547 0.24364181 0.33642018 0.3965382 0.42859474 -0.13047759 0.092652395 -0.111767784
-0.32442516 -0.15360068 -0.40365085 -0.39341587 0.22547238 -0.17602068 0.4551223 -0.6896107
-0.064905815 -0.04048605 0.00877013 0.008949343 0.1308146 -0.073393025 0.3071092 0.4024587
0.40122125 -0.36564493 -0.09068774 -0.09783699 0.8026737 0.28557703 0.2598857 0.81330293
0.5107092 -0.61524075 0.37060186 0.3550535 0.045325827 0.061965026 -0.54568404 -0.05153345
0.26385003 0.100871205 -0.25436813 -0.42602643 -0.22624998 0.38101375 0.39855605 -0.42557666
0.0110051185 0.31281808 0.042270802 -0.3616217 -0.27284408 -0.29892045 0.29758462 -0.2576109
0.036071215 -0.32326806 0.43351302 0.019220786 0.51976275 0.15974231 -0.022251785 -0.15059555
-0.21849911 -0.22379161 0.101797834 -0.5455774 -0.19008633 0.376083 -0.44336304 -0.11391489
-0.06911855 0.04293254 -0.51064116 0.01686043 0.29143643 -0.3739182 -0.5083114 0.41000924
-0.51609004 -0.097898364 0.34037286 -0.3130164 0.22748823 -0.20765938 -0.117583126 -0.15920602
-0.14374399 -0.29061803 0.34701094 -0.055770554 0.41199827 -0.23242626 0.40289828 0.011380915
0.0708135 0.45701846 -0.29311457 -0.29968378 -0.5613417 -0.3669445 -0.13999575 -0.12082934
-0.41404715 0.22825095 0.659137 -0.32071206 -0.28803238 -0.70665693 0.15277888 0.034975365
0.1835653 0.41096696 -0.055831555 0.075205825 0.12224243 0.12972552 0.312003 0.72670287
-0.26200184 -0.044694144 -0.08139038 0.022989029 0.0042714407 0.36261174 0.34200615 0.010153882
-0.28968292 0.41473758 -0.5169033 0.06223188 -0.50304866 -0.2063818 -0.1712837 -0.5952057
0.17434344 0.21997195 0.688306 -0.51467717 -0.3116488 -0.1653666 -0.40668684 -0.43802288
-0.23518033 0.010247918 -0.47121018 -0.22451237 0.07906391 0.08558106 0.10534315 0.26446828
-0.07910619 -0.5483072 0.18505873 0.0016388998 -0.45404783 0.5673757 0.1466989 0.6045035
-0.40092275 0.18314761 -0.33164325 -0.3206596 -0.060433228 -0.5323224 0.26245338 -0.18037088
0.32783353 -0.6202643 -0.079432115 -0.04533725 -0.5652279 0.308792 -0.43954155 0.23266852
0.14409672 -0.5218762 -0.20765372 0.5712025 0.09903628 0.19462949 -0.16594937 0.01801417
0.45911527 0.094356306 -0.28014442 0.030446745 -0.51491094 0.35496917 -0.3410074 0.78946066
0.3573716 -0.6262548 -0.19930658 -0.39066735 -0.30802476 -0.09240452 0.42673898 0.027875245
-0.6868092 -0.4980244 0.41722474 -0.1958234 0.37391427 -0.08989032 -0.42914447 0.099601604
0.21103366 -0.37564358 -0.041625474 -0.22279057 0.30203548 0.1884247 0.14014024 0.46415275
-0.10618066 0.012393579 -0.08828863 0.46013433 0.021952817 0.46180427 -0.35672286 -0.15939221
-0.18291049 0.4483982 0.064699486 -0.12893979 -0.31872088 0.21269432 0.3625136 -0.099338286
-0.032371152 -0.1059583 0.52103597 -0.8803811 0.40195626 0.2917216 0.10762415 0.21831755

fc.bias f4 [825]
00000000: 842a 9d3e f49a 953e 237d cd3e e587 cc3e
00000010: 083e 3c3e dc72 453e fbb7 b13d 6735 533e
00000020: e1cd 923e b06e fe3d b46c 213e bbff 8e3e
00000030: 581a 483e a391 a33e d5f6 34bd 915a 893e
00000040: 19b4 083e ab9f 0abd 7c11 2f3d 72b3 fe3d
00000050: 8bd3 22bd 7842 823d b9e8 21bd d689 813d
00000060: 83de 593d 44a3 f9bb f43e 273e c1dd 49bc
00000070: da92 9c3b daf5 d03d 74a3 a0bc 0f96 07be
00000080: 9ef6 7cbe ce7d 67bc b587 0bbe d499 8fbc
00000090: fcae 9bbc 324a fb3d ecb0 bdbd 6061 71bc
000000a0: 661d 05bd 6e6f 113e 6849 3a3e f4d2 b83d
000000b0: f2d6 2cbe a687 48bc e00e b33d c5c1 773c
000000c0: 6cb5 353e f166 26be c9b3 a9be e0a6 81bb
000000d0: ee52 83be 9693 26bd 163e 0dbd fe8f 0ebe
000000e0: 5253 febd ce88 a2bd 3088 46be 6751 f7bd
000000f0: 8c5e 1fbe c532 88bd f831 06be 5109 c6bd
00000100: 9d97 fcbd 2f87 0ebe b9b4 1abe 0119 25bd
00000110: 9ca9 14be a9d4 31bc a03e 69be df2f f0bd
00000120: eb16 07bd c82f abbd 5460 cfbd 76bc 0a3d
00000130: 50bf 0dbd a86a 8ebd 5115 fabc ac54 25be
00000140: 1316 30be a8f3 4dbd 06d9 28bd 9108 99be
00000150: 1de2 6cbd 3539 4b3b bdbe e23d be15 86bd
00000160: 0997 62be a699 70bd edc4 d6bd 8048 65be
00000170: 3536 64bc 6908 7c3d 8bce 83bd 16bd bbbd
00000180: b806 78be c615 a6bd cd87 63bd b7dd a4bd
00000190: 98e3 2abe 7764 85be a4e3 e53b f26b 8fbe
000001a0: 1a13 65bc a582 0fbe 6b34 7fbd f22e d1bc
000001b0: dabc 703d 262d abbd e3c7 99bd d717 03be
000001c0: 7bbf e2bd fb91 b9bd 0f07 e9bd 7e3d 113e
000001d0: 2330 f53c bbe0 32bd b3d0 c5be 4992 abbd
000001e0: 8cdf 2ebd 0189 43bf 1a98 62bf f8cb 35bf
000001f0: 11d2 3abf 1bd6 83be 7497 25be bbeb 9cbe
00000200: 075f 75be 0639 74be 0826 a2be 0b39 41be
00000210: 3f7f 23be 6f19 10be 4d01 c2bd b7dc 65be
00000220: 3de7 b1be 392e 63bd 9c7e 2dbe 8caa 90bd
00000230: 0079 fabd b61c 0cbe f657 64be 7de9 dfbe
00000240: bed0 8dbe 5c87 91be 75fc 22bd 6833 11be
00000250: 9bb3 9fbe a616 cebe 9d9c 6bbe e2a2 4bbe
00000260: 0c14 7cbe 86c1 3abe 7d2a 23be 7807 c9be
00000270: 5579 babe b720 42be 5177 a4be 5cdc c8bd
00000280: 78b0 53be 2a03 77be 7cc5 abbe 076d c4bd
00000290: 7528 b1be e10a 0fbe 846c 3cbe 78dd f7bd
000002a0: bc62 7dbe 0e14 8dbe c6c0 2bbe 0ce8 b7be
000002b0: cd63 c8be 8999 67be 7dcd 8cbd 8ff7 7fbe
000002c0: b92c 98be 4998 4dbe d9a5 c1bc 1c77 01be
000002d0: 66b1 bebe d7bc 05be e139 3b3c 07d5 1fbe
000002e0: e051 53be 3932 04be 0258 94be 2722 93be
000002f0: 50f5 0bbe a65b 52be 3c39 abbe 180a 8bbe
00000300: 3a7a c7bd 14ab 28be 2dc7 85be 6310 27be
00000310: d541 c4be 13fb 8ebe 179a 98be e895 27be
00000320: e673 8fbe f04f 3fbe ca03 57be 3ea3 90be
00000330: 5f15 b9be ab4b 70be 8a89 a7be 70f6 dcbd
00000340: 15ca 7abe 7b45 b9bc 3432 22be 3675 bdbe
00000350: aad4 22be 088b 87be 8377 0ebe 320c 7cbe
00000360: 0970 a1be e9a0 a4be f727 04be c911 12be
00000370: a72c afbe 139a e9bd 6329 4dbe f48f 11be
00000380: e501 d1bd af47 41be 5891 5bbe e63f 8cbe
00000390: 96d2 8bbe c62e 27be 1b32 c2be a030 62be
000003a0: 69b2 79be 5bd3 46be bac5 acbe ecb5 e7bc
000003b0: 246b ddbd 325c 65bd 6c78 ecbd cbf0 5dbe
000003c0: 52c6 8abe cc52 6a39 965f e9bd 64b7 6ebe
000003d0: c38d 4dbe 82b7 58be f615 8cbe 0524 36be
000003e0: aa8d 52be 956c 61be 63b3 9fbe 1608 9cbe
000003f0: 2e59 43be 6b1d 91bd 398d 48be e5c7 9ebe
0.306965 0.29219782 0.40134534 0.3994743 0.18383038 0.19282097 0.086776696 0.2062584
0.28672698 0.12423456 0.15764123 0.27929482 0.195413 0.3194705 -0.04418071 0.2682691
0.13349952 -0.033843677 0.042741284 0.1243657 -0.039752524 0.06360334 -0.039528582 0.06325118
0.05319072 -0.0076183397 0.16332608 -0.012320937 0.0047782483 0.102031425 -0.01960919 -0.13240837
-0.24703452 -0.014129115 -0.13625987 -0.017529406 -0.019004337 0.12270011 -0.09262261 -0.014732689
-0.03249874 0.14202663 0.18192065 0.09024611 -0.1687887 -0.012239372 0.087430716 0.015121882
0.17744988 -0.16250207 -0.33144978 -0.0039566606 -0.25649208 -0.040668093 -0.034483038 -0.13922116
-0.12418236 -0.0793625 -0.19387889 -0.12076073 -0.1556341 -0.066503085 -0.13104999 -0.09669746
-0.123336054 -0.13918756 -0.15108003 -0.04030705 -0.14517826 -0.010853925 -0.22777796 -0.11727881
-0.03298084 -0.08358723 -0.10125795 0.033871137 -0.034606278 -0.06953937 -0.030527743 -0.16145581
-0.1719592 -0.050281197 -0.041222595 -0.29889348 -0.057832826 0.003100944 0.11071537 -0.06547116
-0.22127928 -0.05874028 -0.10486779 -0.22390938 -0.01392894 0.061531458 -0.06435879 -0.09166925
-0.24221313 -0.08109622 -0.05554943 -0.08050101 -0.16688383 -0.2605321 0.0070156623 -0.28012043
-0.013981605 -0.1401468 -0.06230585 -0.02553508 0.058773853 -0.08358221 -0.075088285 -0.12802063
-0.11071678 -0.09061047 -0.113782994 0.14183614 0.02993018 -0.04367135 -0.38635787 -0.08377511
-0.04269366 -0.76380926 -0.8851334 -0.71014357 -0.72976786 -0.25749287 -0.16171056 -0.30648598
-0.23962031 -0.23849878 -0.3166964 -0.18869416 -0.1596651 -0.14072202 -0.09472904 -0.22447477
-0.34746733 -0.055464003 -0.16942829 -0.07063779 -0.1223011 -0.13682827 -0.2229918 -0.43732825
-0.2769832 -0.28423584 -0.039791543 -0.14179766 -0.31191716 -0.40251654 -0.23008962 -0.19886354
-0.24617022 -0.18237886 -0.15934177 -0.3926351 -0.36420694 -0.18957792 -0.3212228 -0.09807655
-0.20672786 -0.241223 -0.33549106 -0.09591108 -0.3460118 -0.13968994 -0.1840077 -0.12102789
-0.24744695 -0.27554363 -0.16772756 -0.35919225 -0.39138642 -0.22617163 -0.06875131 -0.2499678
-0.2972162 -0.20077623 -0.023638653 -0.12643093 -0.3724472 -0.13060318 0.011427374 -0.15608607
-0.20636702 -0.12909783 -0.28973395 -0.28736994 -0.13667798 -0.20542774 -0.33442104 -0.27156138
-0.0974011 -0.16471511 -0.26128522 -0.16314845 -0.38331476 -0.2792593 -0.2980506 -0.16365778
-0.2801811 -0.18682837 -0.20997539 -0.28249544 -0.36149117 -0.23466365 -0.3272212 -0.10789192
-0.2449115 -0.022616139 -0.15839463 -0.37003487 -0.15901437 -0.2647326 -0.13912778 -0.24614027
-0.3153079 -0.32154015 -0.1290587 -0.14264597 -0.34213755 -0.114063405 -0.20035319 -0.1421507
-0.102054395 -0.18875001 -0.21442163 -0.273925 -0.27309102 -0.16326436 -0.37928852 -0.22088861
-0.24384464 -0.19416563 -0.33744603 -0.02828499 -0.10811451 -0.055996127 -0.11546406 -0.21673886
-0.2710443 0.00022346823 -0.11395185 -0.23312145 -0.20073609 -0.21163753 -0.27360505 -0.17787178
-0.20561853 -0.22014077 -0.3119155 -0.3047492 -0.19076988 -0.07085689 -0.19585122 -0.31011882
